{"format": "layers-model", "generatedBy": null, "convertedBy": "TensorFlow.js Converter v1.7.4r1", "modelTopology": null, "weightsManifest": [{"paths": ["group1-shard1of2.bin", "group1-shard2of2.bin"], "weights": [{"name": "conv2d/kernel", "shape": [3, 3, 3, 16], "dtype": "float32"}, {"name": "conv2d/bias", "shape": [16], "dtype": "float32"}, {"name": "conv2d_1/kernel", "shape": [3, 3, 16, 16], "dtype": "float32"}, {"name": "conv2d_1/bias", "shape": [16], "dtype": "float32"}, {"name": "conv2d_2/kernel", "shape": [3, 3, 16, 32], "dtype": "float32"}, {"name": "conv2d_2/bias", "shape": [32], "dtype": "float32"}, {"name": "conv2d_3/kernel", "shape": [3, 3, 32, 32], "dtype": "float32"}, {"name": "conv2d_3/bias", "shape": [32], "dtype": "float32"}, {"name": "conv2d_4/kernel", "shape": [3, 3, 32, 64], "dtype": "float32"}, {"name": "conv2d_4/bias", "shape": [64], "dtype": "float32"}, {"name": "conv2d_5/kernel", "shape": [3, 3, 64, 64], "dtype": "float32"}, {"name": "conv2d_5/bias", "shape": [64], "dtype": "float32"}, {"name": "conv2d_6/kernel", "shape": [3, 3, 64, 128], "dtype": "float32"}, {"name": "conv2d_6/bias", "shape": [128], "dtype": "float32"}, {"name": "conv2d_7/kernel", "shape": [3, 3, 128, 128], "dtype": "float32"}, {"name": "conv2d_7/bias", "shape": [128], "dtype": "float32"}, {"name": "conv2d_8/kernel", "shape": [3, 3, 128, 256], "dtype": "float32"}, {"name": "conv2d_8/bias", "shape": [256], "dtype": "float32"}, {"name": "conv2d_9/kernel", "shape": [3, 3, 256, 256], "dtype": "float32"}, {"name": "conv2d_9/bias", "shape": [256], "dtype": "float32"}, {"name": "conv2d_10/kernel", "shape": [3, 3, 384, 128], "dtype": "float32"}, {"name": "conv2d_10/bias", "shape": [128], "dtype": "float32"}, {"name": "conv2d_11/kernel", "shape": [3, 3, 128, 128], "dtype": "float32"}, {"name": "conv2d_11/bias", "shape": [128], "dtype": "float32"}, {"name": "conv2d_12/kernel", "shape": [3, 3, 192, 64], "dtype": "float32"}, {"name": "conv2d_12/bias", "shape": [64], "dtype": "float32"}, {"name": "conv2d_13/kernel", "shape": [3, 3, 64, 64], "dtype": "float32"}, {"name": "conv2d_13/bias", "shape": [64], "dtype": "float32"}, {"name": "conv2d_14/kernel", "shape": [3, 3, 96, 32], "dtype": "float32"}, {"name": "conv2d_14/bias", "shape": [32], "dtype": "float32"}, {"name": "conv2d_15/kernel", "shape": [3, 3, 32, 32], "dtype": "float32"}, {"name": "conv2d_15/bias", "shape": [32], "dtype": "float32"}, {"name": "conv2d_16/kernel", "shape": [3, 3, 48, 16], "dtype": "float32"}, {"name": "conv2d_16/bias", "shape": [16], "dtype": "float32"}, {"name": "conv2d_17/kernel", "shape": [3, 3, 16, 16], "dtype": "float32"}, {"name": "conv2d_17/bias", "shape": [16], "dtype": "float32"}, {"name": "conv2d_18/kernel", "shape": [1, 1, 16, 2], "dtype": "float32"}, {"name": "conv2d_18/bias", "shape": [2], "dtype": "float32"}]}]}